__________________________________________________________________________________________________
Layer (type)                    Output Shape         Param #     Connected to
==================================================================================================
input (InputLayer)              (None, 8)            0
__________________________________________________________________________________________________
dense_0 (Dense)                 (None, 512)          4608        input[0][0]
__________________________________________________________________________________________________
dense_1 (Dense)                 (None, 512)          262656      dense_0[0][0]
__________________________________________________________________________________________________
v (Dense)                       (None, 1)            513         dense_1[0][0]
__________________________________________________________________________________________________
a (Dense)                       (None, 4)            2052        dense_1[0][0]
__________________________________________________________________________________________________
q (Lambda)                      (None, 4)            0           v[0][0]
                                                                 a[0][0]
==================================================================================================
Total params: 269,829
Trainable params: 269,829
Non-trainable params: 0
__________________________________________________________________________________________________
None
Agent parameters:
{'env': <TimeLi
…
